…
save=True, lr=0.001, batch_size=256, epochs=200, no_cuda=False, log_freq=1, patience=10, num_workers=8, seed=42, weight_decay=0.0, adam_beta1=0.9, adam_beta2=0.999, gpu_id='0', variance=5, model_type='TVRec', max_seq_length=50, hidden_size=64, num_hidden_layers=2, hidden_act='gelu', num_attention_heads=2, attention_probs_dropout_prob=0.5, hidden_dropout_prob=0.3, initializer_range=0.02, dt_min=0.0, dt_max=0.5, M=8, reg_weight=1e-05, device='cuda', data_file='./data/ML-1M.txt', item_size=3417, checkpoint_path='output/TVRec_ML-1M_best.pt')
2025-05-23 17:19:39,781 - TVRecModel(
  (item_embeddings): Embedding(3417, 64, padding_idx=0)
  (position_embeddings): Embedding(50, 64)
  (LayerNorm): LayerNorm()
  (dropout): Dropout(p=0.3, inplace=False)
  (item_encoder): NVRecEncoder(
    (blocks): ModuleList(
      (0-1): 2 x NVRecBlock(
        (layer): NVRecLayer(
          (out_dropout): Dropout(p=0.3, inplace=False)
          (LayerNorm): LayerNorm()
        )
        (feed_forward): FeedForward(
          (dense_1): Linear(in_features=64, out_features=256, bias=True)
          (dense_2): Linear(in_features=256, out_features=64, bias=True)
          (LayerNorm): LayerNorm()
          (dropout): Dropout(p=0.3, inplace=False)
        )
      )
    )
  )
)
2025-05-23 17:19:40,098 - Total Parameters: 288720
Mode_train:0:   0%|| 0/1040 [00:00<?, ?it/s]Mode_train:0:   0%|| 1/1040 [00:00<08:10,  2.12it/s]Mode_train:0:   0%|| 3/1040 [00:00<02:53,  5.99it/s]Mode_train:0:   1%|| 7/1040 [00:00<01:14, 13.94it/s]Mode_train:0:   1%|| 11/1040 [00:00<00:52, 19.46it/s]Mode_tr
…
2025-05-23 17:53:45,086 - Namespace(data_dir='./data/', output_dir='output/', data_name='Sports', do_eval=False, load_model=None, train_name='TVRec_Sports_and_Outdoors_best', num_items=10, num_users=35599, save=True, lr=0.0005, batch_size=256, epochs=200, no_cuda=False, log_freq=1, patience=10, num_workers=8, seed=42, weight_decay=0.0, adam_beta1=0.9, adam_beta2=0.999, gpu_id='0', variance=5, model_type='TVRec', max_seq_length=50, hidden_size=64, num_hidden_layers=2, hidden_act='gelu', num_attention_heads=2, attention_probs_dropout_prob=0.5, hidden_dropout_prob=0.5, initializer_range=0.02, dt_min=0.0, dt_max=0.5, M=16, reg_weight=0.0, device='cuda', data_file='./data/Sports.txt', item_size=18358, checkpoint_path='output/TVRec_Sports_and_Outdoors_best.pt')
2025-05-23 17:53:45,588 - TVRecModel(
  (item_embeddings): Embedding(18358, 64, padding_idx=0)
  (position_embeddings): Embedding(50, 64)
  (LayerNorm): LayerNorm()
  (dropout): Dropout(p=0.5, inplace=False)
  (item_encoder): NVRecEncoder(
    (blocks): ModuleList(
      (0-1): 2 x NVRecBlock(
        (layer): NVRecLayer(
          (out_dropout): Dropout(p=0.5, inplace=False)
          (LayerNorm): LayerNorm()
        )
        (feed_forward): FeedForward(
          (dense_1): Linear(in_features=64, out_features=256, bias=True)
          (dense_2): Linear(in_features=256, out_features=64, bias=True)
          (LayerNorm): LayerNorm()
          (dropout): Dropout(p=0.5, inplace=False)
        )
      )
    )
  )
)
2025-05-23 17:53:46,054 - Total Parameters: 1248160
Mode_train:0:   0%|| 0/735 [00:00<?, ?it/s]Mode_train:0:   0%|| 1/735 [00:00<05:04,  2.41it/s]Mode_train:0:   0%|| 3/735 [00:00<01:47,  6.83it/s]Mode_train:0:   1%|| 7/735 [00:00<00:48, 15.02it/s]Mode_train:0:   1%|| 11/735 [00:00<00:33, 21.42it/s]Mode_train:
…
2025-05-23 18:21:20,063 - Namespace(data_dir='./data/', output_dir='output/', data_name='Yelp', do_eval=False, load_model=None, train_name='TVRec_Yelp_best', num_items=10, num_users=30432, save=True, lr=0.0005, batch_size=256, epochs=200, no_cuda=False, log_freq=1, patience=10, num_workers=8, seed=42, weight_decay=0.0, adam_beta1=0.9, adam_beta2=0.999, gpu_id='0', variance=5, model_type='TVRec', max_seq_length=50, hidden_size=64, num_hidden_layers=2, hidden_act='gelu', num_attention_heads=2, attention_probs_dropout_prob=0.5, hidden_dropout_prob=0.1, initializer_range=0.02, dt_min=0.0, dt_max=0.5, M=16, reg_weight=0.001, device='cuda', data_file='./data/Yelp.txt', item_size=20034, checkpoint_path='output/TVRec_Yelp_best.pt')
2025-05-23 18:21:20,571 - TVRecModel(
  (item_embeddings): Embedding(20034, 64, padding_idx=0)
  (position_embeddings): Embedding(50, 64)
  (LayerNorm): LayerNorm()
  (dropout): Dropout(p=0.1, inplace=False)
  (item_encoder): NVRecEncoder(
    (blocks): ModuleList(
      (0-1): 2 x NVRecBlock(
        (layer): NVRecLayer(
          (out_dropout): Dropout(p=0.1, inplace=False)
          (LayerNorm): LayerNorm()
        )
        (feed_forward): FeedForward(
          (dense_1): Linear(in_features=64, out_features=256, bias=True)
          (dense_2): Linear(in_features=256, out_features=64, bias=True)
          (LayerNorm): LayerNorm()
          (dropout): Dropout(p=0.1, inplace=False)
        )
      )
    )
  )
)
2025-05-23 18:21:20,898 - Total Parameters: 1355424
Mode_train:0:   0%|| 0/851 [00:00<?, ?it/s]Mode_train:0:   0%|| 1/851 [00:00<05:04,  2.79it/s]Mode_train:0:   0%|| 4/851 [00:00<01:20, 10.46it/s]Mode_train:0:   1%|| 8/851 [00:00<00:47, 17.74it/s]Mode_train:0:   1%|| 12/851 [00:00<00:37, 22.53it/s]Mode_train:
…
